tank-ai.pth (torch, 454435 bytes, 22 tensors)

convs.0.weight f4 [32, 3, 3, 3]
000000 e0 09 b7 3a bb 38 d9 3d c2 69 1f be 1e 39 0e be
       0.0013964735 0.106065236 -0.15567687 -0.13888976
000010 49 48 92 bd 13 11 5e 3d 2a f9 96 ba 2d fc 1e 3e
       -0.071426935 0.054215502 -0.0011518348 0.15525885
000020 a6 39 6b bc 36 1e 5b 3d 18 5c 63 bd 0a 98 11 bd
       -0.014357006 0.05349561 -0.05550775 -0.035545386
000030 44 04 39 be 4f 32 ff bd ca 13 9d bd 88 89 23 3c
       -0.18068033 -0.124607675 -0.0766979 0.0099815205
000040 ef 61 a1 3d fc f1 f1 3d d6 25 04 be f5 1c a8 bd
       0.078800075 0.11813733 -0.12905058 -0.08208648
000050 4b 9e 92 3d d0 e7 26 3e 53 34 16 bd e5 15 16 3e
       0.07159098 0.16299367 -0.036670994 0.1465679
000060 0b 43 e3 bc 31 3e be 3c dd d9 34 3e 28 dd 39 be
       -0.02774193 0.023223015 0.17661233 -0.1815077
000070 cb fb fd bd 84 6f 53 bd d7 c3 91 bd 63 5e 27 3e
       -0.12401541 -0.05162002 -0.071174316 0.163446
000080 64 a9 02 be e5 a0 bb bd f2 b9 0c be 4b a6 3b be
       -0.1275993 -0.091615476 -0.13742808 -0.18325154
000090 6a ea eb bd ca 7f 26 3e 61 f7 a9 3d 0b 48 b9 3d
       -0.1151932 0.16259685 0.08299137 0.09046944
0000a0 d4 9a ee 3b 9e e7 cf bd 5e bf f2 3c fa ee 3a be
       0.0072816405 -0.10151599 0.029632267 -0.18255225
0000b0 c7 55 11 be 82 bd d0 bd 5e b5 f2 3d d9 31 e1 3d
       -0.14192878 -0.10192396 0.11850999 0.10995836
0000c0 fc 01 b5 bd e6 35 22 bc 30 22 f6 3d 7b dd 40 3e
       -0.08838269 -0.009900546 0.120182395 0.18834488
0000d0 dd 84 96 3d 21 4c bd 3c 37 0a 01 3e 45 22 ee bd
       0.073495604 0.02310759 0.12601553 -0.1162763
0000e0 d8 e1 06 3d fa e7 1b be 55 9e 0b be bc 8e d1 bd
       0.032930225 -0.15225211 -0.13634618 -0.102323025
0000f0 c1 05 ac 3d b8 55 98 3d b4 8d ef bd d4 d2 61 3d
       0.08399535 0.074382246 -0.116969496 0.055132702
000100 91 3c d2 3d a6 74 df bc 37 74 8d 3b 69 70 2a 3d
       0.102654584 -0.027277302 0.0043168324 0.04161111
000110 15 8e ee 3d f6 30 3a 3e f6 ca 1a be db e5 95 bd
       0.11648194 0.1818274 -0.15116486 -0.07319232
000120 5b df 94 3d 30 3b 20 3e b1 65 28 3e 53 de 2a 3e
       0.07269164 0.15647578 0.16445042 0.16686372
000130 e3 b0 10 3d 46 71 2e be b0 7e 76 3c aa d8 fb bd
       0.035324942 -0.17035398 0.015044853 -0.12297185
000140 c3 3b 3a be fc 61 2c 3e be 6c 13 3e 64 fe 46 be
       -0.1818686 0.16834253 0.1439695 -0.1943298
000150 eb d0 07 3d 90 69 0e bd 39 ba 0c bd 83 bf ba bd
       0.033158224 -0.03476864 -0.034357283 -0.09118559
000160 a3 91 92 3d 4d bd ed bd 67 05 8b 3d af 44 c2 3d
       0.07156684 -0.11608372 0.0678814 0.094857566
000170 6d 93 0a 3e e7 22 8e 3d 52 04 45 be 6c e5 01 be
       0.13532801 0.06940251 -0.1923993 -0.12685174
000180 0d e0 be 3d f1 7a 1d 3d 2d 25 19 be c4 5d e8 bd
       0.09320078 0.038447324 -0.14955588 -0.113460094
000190 be f1 36 3e e0 6f 02 3e a3 cf b0 bd b0 3c 4b bd
       0.17865655 0.1273799 -0.086333536 -0.049618423
0001a0 d0 9b 3c be bf 32 03 bb 80 4b 10 be 1f b6 18 be
       -0.18418813 -0.002001926 -0.14091301 -0.14913224
0001b0 7f 96 73 bc 6b 8f e3 3c 60 46 a0 bd 7b 79 e1 3d
       -0.014867424 0.027778348 -0.07825923 0.11009499
0001c0 63 fe ed bd bb 99 34 3e 91 e5 06 3e c1 f2 23 be
       -0.11620786 0.17636769 0.1317351 -0.16010572
0001d0 15 23 39 bd bd 9f 90 3b 4f 10 d7 3c ea 5e 37 3d
       -0.045199472 0.0044135735 0.026252894 0.04476825
0001e0 07 24 92 3d a0 7d 1d 3c 57 54 c3 bd 60 8a b1 3d
       0.07135778 0.009612471 -0.09537571 0.08668971
0001f0 c3 e9 3c be f5 5a e5 bd 3a e6 37 bd 87 14 c7 bd
       -0.18448548 -0.11198989 -0.044897296 -0.09720712
000200 42 64 83 bd ed 6c 1f be 0d f1 1e bd 03 ec 33 3d
       -0.06415607 -0.15568896 -0.038804103 0.04392625
000210 35 80 fe bd 1d e3 0f bc e6 56 0f 3e c8 29 ba bc
       -0.12426797 -0.008782175 0.13997993 -0.022725001
000220 3e 27 1e 3b 20 6f a0 bc b3 ad 13 3d 94 b3 f4 3d
       0.0024132277 -0.019584239 0.036054324 0.11948314
000230 4b aa 37 3e 93 53 f4 3d 2c 1d 38 3e 5b 35 8a bc
       0.17936055 0.11930003 0.17979878 -0.016871145
000240 df 57 34 be a1 97 c1 bd df be 02 3e a3 dd 1a bb
       -0.17611645 -0.09452749 0.12768124 -0.002363064
000250 c7 16 c8 bd cd ee 19 be 2b 35 3b be eb 17 29 be
       -0.097699694 -0.15032502 -0.18282 -0.1651303
000260 d8 eb 2b bd 07 46 dd 3d 60 cc d8 3d ed 4a 3c be
       -0.041972965 0.10804372 0.105858564 -0.18387957
000270 e8 69 fc 3d df 19 17 be 77 32 1c bd d5 34 99 bd
       0.123248875 -0.14755963 -0.038134065 -0.0748078
000280 91 ed 09 bd 48 78 11 bd 59 69 34 be e6 74 2b be
       -0.033673827 -0.0355151 -0.17618312 -0.16743812
000290 7e ab f9 bc 36 c3 9f ba 9b 56 b7 bd f9 d9 92 3d
       -0.030477282 -0.0012188915 -0.089520656 0.07170481
0002a0 8e 79 35 be 4a b9 79 bc 0e 8d 2c 3e 7c db a3 bd
       -0.1772215 -0.01524193 0.16850683 -0.08000848
0002b0 07 57 31 3e 62 3f 8e 3d c4 ac 33 be 57 08 f7 3d
       0.17318355 0.06945683 -0.17546374 0.120621376
0002c0 7f 00 ba bc 2f e8 b0 bd f4 86 1d 3e 1b 9b 1e be
       -0.022705315 -0.086380355 0.15383512 -0.15488856
0002d0 08 a8 97 3c 3f b9 2c bd d0 39 0b 3e fd 42 52 3d
       0.01851274 -0.042168852 0.13596272 0.051333416
0002e0 a5 73 ba 3d 25 f8 88 3d b9 fd 3f bd 9c 9a 22 bd
       0.09104089 0.06687955 -0.04687283 -0.03969823
0002f0 46 3e 21 be 44 11 d7 3d c3 1a 1e 3e 01 52 08 3e
       -0.15746412 0.1050134 0.15439896 0.13312532
000300 fe 46 09 be 9b 00 2e 3c 59 f1 08 be ab 07 d6 bd
       -0.13405988 0.010620262 -0.13373317 -0.10450681
000310 ee d6 e1 bd f7 18 8a 3d 80 e0 e8 bd dd f8 25 bb
       -0.11027323 0.06743043 -0.11370945 -0.0025325336
000320 be ba 1d 3c 7b d3 ff 3d 42 54 12 be c1 c6 04 be
       0.009627042 0.124915086 -0.14289954 -0.12966444
000330 a7 ea ec bd 56 64 0c 3e bd 1e 8a bd 10 a0 26 3e
       -0.11568194 0.1371015 -0.06744144 0.16271996
000340 f6 f3 90 3d 7b be d1 3c 5b 3b e2 ba fa 0b 11 bd
       0.07077782 0.025603523 -0.0017260121 -0.035411812
000350 6e 22 db 3c 3e 45 45 bd 57 bd 90 3a 90 ea d9 3c
       0.026749816 -0.048161738 0.0011042756 0.026601106
000360 bb 91 1e be 0c 58 d7 bd 8e b4 1a 3e 94 64 24 be
       -0.1548528 -0.105148405 0.15107939 -0.16053993
000370 8d 2d 94 bc 5b 91 3e 3e 82 e5 85 3d 24 25 9f 3a
       -0.018088127 0.18610136 0.06537916 0.0012141806
000380 2e 20 2f be 79 c8 bb 3d 45 1c 0d be c6 ca 66 bd
       -0.1710212 0.091690965 -0.13780315 -0.056345724
000390 7b 4c 88 bd 80 fe f0 bc 38 a5 a4 3a 95 2a 1e 3e
       -0.066552125 -0.02941823 0.0012561446 0.15445931
0003a0 50 fb a3 3c 09 9a 2c 3e 4a 48 e8 3d bd 80 fc bd
       0.020017296 0.16855635 0.11341913 -0.123292424
0003b0 1e 94 ac 3d fb 9d 0f be b2 54 aa bd ec e8 5e 3d
       0.084266886 -0.14025109 -0.083169356 0.05442135
0003c0 bd b1 72 3d e6 b4 0f 3e e5 6f 87 bd 90 df 39 3a
       0.059251536 0.14033851 -0.06613139 0.00070905033
0003d0 54 79 cd 3d 9b 62 3d be 1a 1b 0f 3e d1 e1 21 be
       0.10032907 -0.18494646 0.13975182 -0.15808798
0003e0 85 47 6b 3b 1a 21 04 bd 6e c4 cd bd e5 19 d7 3c
       0.0035900783 -0.03225813 -0.100472316 0.026257465
0003f0 ea 9a 23 3e e5 ef 60 bd ff 64 e7 bd ee c0 94 bd
       0.15977064 -0.05491628 -0.1129856 -0.07263361

convs.0.bias f4 [32]
000000 06 d2 44 3e 41 59 ae bd 94 29 97 bc 35 10 b2 bd
       0.19220743 -0.085131176 -0.018452443 -0.086944975
000010 5e 6b d5 bc df 88 1a 3d 0a 04 e5 3c ce bd 0e bd
       -0.026052173 0.037728187 0.027956028 -0.03484898
000020 25 54 49 be c6 54 c6 3b f0 4a 11 bc 85 4b ec 3c
       -0.19661005 0.0060525863 -0.008867964 0.028844604
000030 c5 f5 13 3e b4 d6 43 3e af ba f2 bd 96 70 74 bc
       0.14449222 0.19124871 -0.11852013 -0.014919421
000040 65 c9 98 bd 84 f8 32 be 00 51 11 be 5f bf 34 3e
       -0.07460288 -0.17477614 -0.14191055 0.17651127
000050 ef 0e e1 3d e7 2e de 3d 73 dd d6 3d 89 96 1d be
       0.109891765 0.1084879 0.10491457 -0.15389456
000060 75 7e 89 3c af a2 34 3e bd 59 e3 bd 70 77 31 3e
       0.016783932 0.17640184 -0.111011006 0.17330718
000070 ff bc 59 3d d2 df 0d 3e e4 1b ad bd 5c a5 ba 3d
       0.053158756 0.13854912 -0.08452585 0.09113571

convs.2.weight f4 [32, 32, 3, 3]
000000 9d eb 59 bd 47 7a e7 bb 19 a3 84 3c fb b6 a6 3c
       -0.053203214 -0.007064137 0.016191052 0.020350924
000010 b6 d3 3b 3d cd 83 5f 3d ec 7b 66 3d ee 55 14 3d
       0.0458562 0.054569054 0.056270525 0.03621476
000020 99 98 1b 3d 7c 56 2c bc 3c 78 48 bd 2d 44 b4 bc
       0.037987325 -0.010518666 -0.04894279 -0.022005165
000030 29 7d 1a bc c8 3e 10 bd 15 b3 f5 3c 84 de b8 3c
       -0.009429255 -0.035216123 0.02999262 0.022567041
000040 5e fc bb 3b 7b 7d 68 3c cc 82 48 3d 3c 1e 9c 3c
       0.0057368716 0.014190073 0.048952863 0.019057386
000050 51 fb 4a bd 22 17 3f bd f2 b1 bb 3c d2 a9 40 3c
       -0.04955608 -0.04665292 0.022912 0.011759238
000060 17 75 ce 3c d9 7a 80 bd 47 91 59 bd 7b f9 12 3d
       0.025202317 -0.06273431 -0.053117063 0.035882454
000070 ba 26 0e 3d 27 65 4f bd eb 6d 9d 3c dc 27 31 bd
       0.0347049 -0.050633576 0.019217452 -0.043250903
000080 39 b4 2b 3d 19 03 79 3c 9e ff 79 3d 87 1d 68 bd
       0.04191992 0.015198492 0.06103479 -0.056668784
000090 24 9b 75 bd 72 b3 2a 3d 0f 96 44 3d b5 94 05 3d
       -0.059962407 0.04167504 0.04799467 0.03261252
0000a0 d3 fa 0f 3d 4c ec 3c bd df 6e 1f 3d db 63 6f bd
       0.035151314 -0.046123788 0.038924094 -0.05844484
0000b0 21 c4 1c 3c 02 f5 2a bd 77 6e e0 bc ee ae df 3b
       0.009568245 -0.041737564 -0.027396424 0.006826273
0000c0 a2 88 ce bc 28 37 48 bc 1e c2 72 bd 11 76 6a bd
       -0.025211636 -0.0122201815 -0.059267156 -0.057241503
0000d0 e7 f5 a6 3c 46 37 e3 bc 57 f4 09 bd 34 d8 d9 bc
       0.020380927 -0.027736317 -0.033680286 -0.026592351
0000e0 fe 7e 54 bd 05 9a 34 bd 0b 91 03 3d 74 7d d7 3c
       -0.05187892 -0.044092197 0.032120746 0.026304938
0000f0 ce 96 13 3c 64 cf 10 bd e1 62 83 3c 0a f1 f0 b9
       0.009008123 -0.035354033 0.01603836 -0.00045955955
000100 c7 b7 36 bd 1f f5 74 3c 5c fa 67 3d c0 10 7a bd
       -0.044608857 0.01495102 0.056635246 -0.06105113
000110 73 87 7f bd 03 61 47 3b 1c 0c 27 3d 9d 2a 23 bd
       -0.062385034 0.0030422814 0.040783033 -0.03983556
000120 1f 90 20 3c 90 a0 1b 3d a1 1b 67 3c 28 20 75 3c
       0.009799986 0.03799492 0.014105708 0.01496128
000130 62 cc 61 3d 9c c1 15 3d a9 52 f7 bc 5c 46 da 3a
       0.055126555 0.036561593 -0.030190783 0.0016653049
000140 70 54 d5 3c a0 11 46 3d 12 ab 7a bd 68 d3 eb 3c
       0.02604124 0.048356652 -0.0611983 0.02878733
000150 d6 ec a6 bc a4 04 7a bd f3 ed 2c 3c c5 09 0f bd
       -0.020376604 -0.061039582 0.010554778 -0.034921426
000160 cd 1c af 3b 39 66 28 bd 1d b8 42 bd e7 29 19 bb
       0.0053440095 -0.041113112 -0.047538865 -0.0023370923
000170 25 f1 c1 bc 3a 76 0e 3d e3 a1 64 3b 5e 5c 49 3d
       -0.023674557 0.03478072 0.003488653 0.049160354
000180 2a c1 ee 3b 4c 9c 86 bc a3 cb 2a 3d 98 73 14 39
       0.0072862105 -0.01643195 0.04169811 0.00014157442
000190 61 6d 60 3c 5b 46 7f bc e4 3f 45 3b c1 3c 77 bc
       0.013697953 -0.015580739 0.0030097896 -0.015090168
0001a0 db 2a f4 bb 4b 1b 4c bd 1d 79 7c bb 05 42 57 bd
       -0.007451398 -0.049830716 -0.0038524338 -0.052553196
0001b0 f5 82 1a bc d4 34 fc 3c 33 e5 35 bd 28 f8 13 bd
       -0.009430637 0.03078691 -0.044408035 -0.036125332
0001c0 03 fe 90 bc 42 f1 a0 bc 41 06 48 3c 20 95 d5 3b
       -0.017699247 -0.01964629 0.012208522 0.006518021
0001d0 56 4a d7 3c 16 50 33 bd 5a d5 f8 bb 06 fe 0e 3d
       0.026280563 -0.043777548 -0.007593793 0.034910224
0001e0 b6 0b 41 3d c8 ab 01 bc ff 01 02 bd 70 3e 57 3c
       0.04713031 -0.007914491 -0.031740185 0.013137445
0001f0 88 49 03 3d 59 82 05 bd a3 b8 1b bd c4 3f b9 3c
       0.032052547 -0.032595012 -0.03801788 0.022613414
000200 38 5e f9 bb 9e 3f 56 bd 16 c8 18 bd 79 8a a7 3c
       -0.0076101087 -0.052306764 -0.03730019 0.020451771
000210 c9 50 8a bc e7 dd 18 3d 75 a6 30 3d b9 c2 3e 3c
       -0.016884224 0.037320998 0.043127496 0.011643105
000220 d2 b3 0a bc 1c 3e b6 bc 6b e8 ea 3a c9 0c f6 3b
       -0.008465724 -0.022246413 0.0017922049 0.0075088483
000230 95 59 46 bd 6e 4b 1e bc 7e 91 54 bd d9 29 07 3d
       -0.048425276 -0.0096615385 -0.051896565 0.032998893
000240 b4 5d 26 bd 77 df 4d 3d 70 c4 96 bc 2d 0d 19 bd
       -0.040616706 0.05026194 -0.018404216 -0.03736608
000250 fe 02 ea 3c 65 7b 27 3c 00 3c 1a 3d 16 25 c3 3c
       0.02856588 0.010222291 0.037654877 0.023821395
000260 cb 1f 77 bd 3a 78 0c 3d cf 0e 06 bc 60 0d be bc
       -0.060333055 0.034294344 -0.008182242 -0.023199737
000270 a9 9f 0b 3d 14 fc 20 3d 42 c6 49 bd 26 4f ed bb
       0.03408781 0.0393029 -0.04926134 -0.0072421012
000280 9c dd 37 3d 24 41 a3 3c 66 21 3d 3d 7e 32 c2 bc
       0.044889078 0.019928522 0.04617443 -0.023705717
000290 e9 d6 13 bd b1 85 56 3d 21 34 e4 3c dc 9c 68 3d
       -0.036093626 0.05237359 0.027856888 0.056790218
0002a0 fe c5 c6 bc de 14 10 bd 62 71 8d bb 19 b8 71 bd
       -0.024264332 -0.03517615 -0.004316495 -0.05901346
0002b0 be 60 a0 3c 35 e4 23 3d dc 0c 94 3c e8 ea 11 bc
       0.01957738 0.040012557 0.018072538 -0.008906104
0002c0 b2 9b d1 3c 2d 9a 07 bd e7 8f 61 3d 20 c1 7d bd
       0.025586937 -0.033106018 0.055068877 -0.061951756
0002d0 c0 2a 5d bd 2a 2c 8f bc 03 47 37 3d 4f f1 ae 3b
       -0.053995848 -0.017477114 0.044745456 0.005338825
0002e0 11 cf d4 3c 16 e5 26 bd 24 ac 98 3c 42 18 0d bc
       0.025977643 -0.040745817 0.01863677 -0.008611741
0002f0 1c e5 ce 3c e4 c3 1e 3d f1 f7 b5 3c 3b b8 0b bc
       0.025255732 0.038761035 0.022212954 -0.008527811
000300 13 46 89 b9 58 e1 24 bd 44 eb ca bc e7 d3 24 3d
       -0.00026182886 -0.040253967 -0.024770387 0.04024115
000310 1c 53 dd bc 99 9e 07 3d bb 13 e0 bc 57 aa 3e bc
       -0.027017169 0.033110235 -0.027353158 -0.011637292
000320 c3 88 99 3b 4c b7 69 bd bb 19 1c 3b 1c 3e 29 bb
       0.0046854927 -0.05705957 0.0023819047 -0.0025824374
000330 03 6d 13 bc 4e 08 4f bc c2 55 49 3d b4 29 23 3d
       -0.008998158 -0.012636257 0.04915405 0.039834693
000340 ee 41 26 bd 3a 64 c3 3c ef ed 4a bd 4b e2 3f bd
       -0.04059022 0.023851503 -0.049543317 -0.04684667
000350 76 09 ad 3c 7d 21 fc ba 41 a4 ce bc 4c d1 6c bd
       0.021122675 -0.0019236055 -0.025224807 -0.05781679
000360 ac b7 99 bc 2f 09 85 3c 78 f6 6d bd e3 66 5c bd
       -0.01876434 0.01623973 -0.05809638 -0.053809058
000370 0f ee 84 3b 4a 10 3c bd c0 8e 47 bd be a3 d5 bc
       0.004056699 -0.045913972 -0.04872012 -0.026079055
000380 7c 57 54 bc bf da 68 bd c4 ec 2e bd 14 3f 1a 39
       -0.012960311 -0.056849238 -0.042706266 0.00014710083
000390 03 3b 69 bd 59 f3 3e bc 5e 73 2c bd 98 b0 18 bd
       -0.056941044 -0.011654698 -0.04210221 -0.037277788
0003a0 31 7f a3 3c 2e 40 39 bd df 52 26 bd 87 2f f8 3c
       0.01995811 -0.045227222 -0.040606376 0.0302961
0003b0 f5 31 e9 3b 61 44 66 3d 55 1f 9f bc f9 f3 d1 bc
       0.007116551 0.056217555 -0.01942412 -0.02562903
0003c0 8f 5d 28 bb 7d b1 49 bb ac 6d 45 3d a9 51 7e bd
       -0.002569053 -0.0030775957 0.048200294 -0.062089596
0003d0 9b d9 09 ba 8e eb b8 3c f1 b3 fc bc 26 38 de bc
       -0.0005258561 0.022573259 -0.030847521 -0.027126383
0003e0 2c 2b 00 3d 71 2b 5f bd a6 3c 88 3c 8c 5a 3c bd
       0.031291172 -0.05448479 0.016630482 -0.04598479
0003f0 9d 50 06 3d a8 81 5c bd cd 05 06 3d 06 6c 56 bd
       0.032791723 -0.053834587 0.032720376 -0.052349113

convs.2.bias f4 [32]
000000 19 c2 00 bd 7d 51 40 3d d9 c7 ea 3c cc 2b 6d bd
       -0.031435106 0.046952713 0.028659748 -0.057903096
000010 a3 e2 f4 ba e6 32 31 bd 3a 34 41 bd 02 57 df bc
       -0.0018683266 -0.04326143 -0.047168948 -0.027263168
000020 8c c5 64 3d 54 69 19 bd 2f 5c 18 3d b2 19 6b bd
       0.055852458 -0.037453964 0.037197288 -0.05739755
000030 c7 dc 6d bb b2 0f 4b 3d 97 f9 89 bc c1 57 b9 bc
       -0.0036294924 0.049575515 -0.016842647 -0.022624852
000040 8d 8d be bc 6c e6 3d bd 13 8b a2 3c 42 d9 21 bd
       -0.023260856 -0.046362326 0.019841706 -0.039513834
000050 06 ab 26 bd ce 51 4a 3d 82 be 3d 3d 72 d9 0b bd
       -0.040690444 0.04939442 0.04632426 -0.03414292
000060 ff 10 58 3b ec 21 93 bc d5 b4 2d 3d 07 8f 65 bd
       0.0032969115 -0.017960511 0.042408783 -0.056044605
000070 19 32 68 bd b5 a7 00 3d f1 9c 6a 3a e1 b4 85 bc
       -0.0566884 0.031409938 0.00089497777 -0.016321601

convs.5.weight f4 [64, 32, 3, 3]
000000 b7 78 03 3d 46 c0 d8 3c 39 d1 1f bd 4e 85 12 3d
       0.032097545 0.02645887 -0.03901789 0.03577166
000010 a7 14 16 3d d2 3d 02 bc 01 d2 44 bd 48 5d e2 3c
       0.03664079 -0.007949309 -0.048051838 0.02763237
000020 b4 9c 1a 3d df 72 64 bd 46 19 54 bd 40 2f 8e bb
       0.0377471 -0.055773612 -0.051781915 -0.0043391287
000030 0e b7 48 bd 23 ec db bc e0 37 47 3d bf e9 5b 3c
       -0.0490027 -0.026845997 0.04863727 0.013422429
000040 2a b7 1a 3d 56 d7 86 3c ea b6 75 3d 6f c3 db 3c
       0.037772335 0.016460102 0.059988894 0.026826588
000050 63 fa a1 3c 5e 74 40 3d 0a 6e ac bc 0e b8 58 3d
       0.019772714 0.046985976 -0.021048564 0.052909903
000060 f9 4e 04 3c f7 c2 66 3d 7c df 05 bd 27 4d 19 bd
       0.008075469 0.056338277 -0.032683834 -0.037427094
000070 55 45 3a 3d c0 83 00 bd ee db 65 3c 30 79 6f 3d
       0.045476276 -0.031375647 0.014029486 0.058465183
000080 97 78 5f 3c 8a 96 20 bd a5 0d 08 bd 7d 6a f4 bc
       0.013639591 -0.039206065 -0.033216137 -0.029835934
000090 85 99 18 bd f9 67 0c 3d 03 5f 3a 3c 13 e0 2b bb
       -0.037255783 0.034278844 0.011375192 -0.0026226088
0000a0 1a 35 9d 3c 71 c5 18 3d ca d8 fe 3b e5 90 27 3d
       0.01919036 0.03729767 0.007777308 0.040909667
0000b0 b9 fe a7 bb c0 3b cd 3c d0 f8 75 3c 7e 5b 3b 3b
       -0.005126801 0.025052905 0.015012935 0.002858847
0000c0 99 98 38 3d 2f 53 71 3d 79 32 4a 3d 34 be 4d bc
       0.045067403 0.05891722 0.04936454 -0.012557555
0000d0 0f 9d 89 bc c7 4c 4f 3d 4c b4 c3 bc d4 94 17 3c
       -0.016798524 0.05061033 -0.023889683 0.009251792
0000e0 54 11 fc bc bc 7f 4f bc 50 f7 9d bc 2f b7 21 3d
       -0.030769981 -0.012664732 -0.019282967 0.039481338
0000f0 35 ab bd bc c8 fe bb bc dc 7f e1 3c 72 77 6f ba
       -0.023152927 -0.022948638 0.027526788 -0.0009134925
000100 85 09 02 3c 4d 57 2b bd cf 50 c1 bc 37 b5 02 3d
       0.00793684 -0.041831303 -0.023598103 0.0319111
000110 ee fa f0 3c 7a e9 53 bd 65 d1 1d bd 6f c9 9f 3c
       0.029416528 -0.051736332 -0.038529772 0.01950523
000120 44 c7 32 bd e7 0f e9 bc 63 f2 fb bc cd 72 2d bd
       -0.043647066 -0.028449966 -0.030755227 -0.04234581
000130 ce 75 d6 bc a5 79 33 3d 15 99 53 bd 11 1b 2a 3d
       -0.02617922 0.04381718 -0.051659662 0.04152972
000140 c5 c1 46 bd f2 5e 5b bc af d3 8b bc 92 f0 23 3d
       -0.048524637 -0.013389336 -0.017068712 0.040024348
000150 24 01 38 bd 01 17 d9 bc bf 1c 62 bd 6e f6 6b bc
       -0.044922963 -0.026500227 -0.055203196 -0.014402015
000160 5c 5c d7 3c fc 0f 70 3d 79 f0 5b 3d e2 47 55 bc
       0.026289158 0.058608994 0.05369613 -0.0130176265
000170 ab 08 eb bc 53 c7 80 3c b7 1c 2b 3d ae 4f 63 3d
       -0.028690657 0.015720045 0.04177543 0.05549591
000180 55 dd 2f 3d ad d8 cd 3a 2f 88 3c bd 23 99 07 bd
       0.042935688 0.0015704833 -0.046028312 -0.033105027
000190 1e c3 1d 3d 8b ef 42 bd 09 f4 25 bd 0d ec 0e bd
       0.038516156 -0.047591727 -0.040515933 -0.034893084
0001a0 69 8c 57 bc b9 76 f6 3c b8 d1 31 3d 00 e4 44 3d
       -0.013156035 0.030085908 0.043412894 0.048069
0001b0 ad b6 f4 3c 90 c6 82 3c 86 3e 53 bc 52 6a 09 bd
       0.029872263 0.015963823 -0.012893325 -0.03354866
0001c0 29 76 e0 bc d6 e2 5f 3a 67 7b 5b 3d f7 7d 96 bc
       -0.027400093 0.0008540576 0.053584483 -0.018370612
0001d0 2f fd ca bb 31 4b 88 3a 24 4c c3 bc d9 37 cf bc
       -0.0061947326 0.0010398385 -0.023840018 -0.025295185
0001e0 d7 35 9e 3c f5 1b 22 bd c1 c8 8c ba 70 ae 3d bc
       0.019312782 -0.039577443 -0.0010740982 -0.011577234
0001f0 86 6b 7f 3c 44 93 a6 bb ae 14 e8 bc 83 54 79 bc
       0.0155896 -0.0050834734 -0.028330173 -0.015217903
000200 39 d7 44 bc 00 fa e1 3c 17 db 82 3c bd d9 80 bc
       -0.012014204 0.02758503 0.01597361 -0.015728826
000210 5d 69 47 3d 66 ba fd 3b 79 2b 0e 3d ed 05 a0 bc
       0.048684467 0.0077431677 0.034709428 -0.019534076
000220 59 aa 41 bd e8 7d 5d bd 86 7b 8b bc db f1 1f 3d
       -0.047281597 -0.05407515 -0.017026674 0.03904901
000230 13 be 21 3d 36 7e a9 3c 2b dd 9f 3c 12 fc 17 bd
       0.03948791 0.020690065 0.01951464 -0.037105627
000240 46 90 76 bc b5 6b 1c 3c cc 2f 49 bd 95 6d 51 bd
       -0.015049046 0.009547164 -0.04911785 -0.051129896
000250 80 dd 2c bd 64 15 a9 3c 6d 05 a6 bb c0 f7 01 bc
       -0.042203426 0.020640083 -0.005066565 -0.007932603
000260 a7 e4 1f 3d 34 d0 16 bd 19 a5 0a bd d7 c1 31 bc
       0.03903642 -0.03681965 -0.033848856 -0.010849438
000270 dd 3b 1f 3d eb dd 45 3c 47 69 45 bd d1 4c 35 3d
       0.03887545 0.012076835 -0.048196103 0.04426271
000280 a5 79 01 bd a7 18 47 3d a2 5c c6 3c 65 82 94 3c
       -0.03161015 0.048607495 0.024214093 0.018128583
000290 0d 06 53 3d a3 e5 c6 3c 2b 2a 63 bd 9b 28 d6 3c
       0.051519442 0.024279421 -0.055460136 0.02614241
0002a0 be bd 74 3d 21 d5 b2 bc d9 dc 3b 3d 7c 3d 4d 3d
       0.059751265 -0.021830143 0.045864914 0.050107464
0002b0 3c a8 39 bc 66 57 0f 3b 02 87 c1 bb 30 cc 5e 3d
       -0.011331614 0.0021872162 -0.0059059868 0.054393947
0002c0 b9 6b dc 3c 8b 85 35 3d c4 b1 4d bd a7 c5 af bc
       0.026906835 0.04431681 -0.05021836 -0.021456553
0002d0 c6 0d 2b bd fa 3f 80 3c 4b c0 a5 bc 26 7e a2 3c
       -0.041761182 0.015655506 -0.020233294 0.019835543
0002e0 08 0d 09 3d c1 7e 54 bc d8 4c 1e 3c e8 7a 26 bd
       0.033459693 -0.012969674 0.009661876 -0.040644556
0002f0 04 d4 86 bb fd 98 46 3c d4 01 37 3d bb e3 d8 3c
       -0.0041146297 0.012121436 0.044679478 0.026475778
000300 82 af 95 3c 59 00 08 3d 71 a7 47 3d 4b e7 04 3c
       0.018272165 0.033203457 0.04874367 0.008111785
000310 b2 07 73 3d 41 59 08 bd 6d 38 b8 3c 7e 40 34 3b
       0.05933351 -0.033288244 0.022487843 0.002750426
000320 84 31 3d 3d 84 f8 5b bd ac 7a ff 3c e6 e3 44 bd
       0.0461898 -0.0537038 0.031186424 -0.048068903
000330 59 af 77 bc b7 bf 86 bc af 71 8c bc 81 80 dc bc
       -0.01511749 -0.016448839 -0.017144052 -0.026916744
000340 0c 5d 3c bd 8e 02 4c bd 91 9d 89 bc fe 14 45 3d
       -0.045987174 -0.049807124 -0.016798766 0.048115723
000350 32 b8 89 bc a5 06 17 bd ab 51 63 bc 31 64 3b bd
       -0.016811464 -0.03687157 -0.013874452 -0.045749847
000360 3a 58 3c ba 3d 9f 50 3d 7f 31 61 bd 1e 21 0c 3d
       -0.00071847776 0.05093311 -0.054978844 0.03421127
000370 af 15 3d 3d 99 59 38 3d fd 40 05 bd 39 02 19 3c
       0.046163257 0.045007322 -0.03253268 0.009338909
000380 f6 3c 12 3d 02 d5 43 bd 32 77 44 3d dd ef d3 ba
       0.035702668 -0.047810562 0.047965236 -0.0016169507
000390 29 91 49 bd 3c d8 4c bc b8 f2 8e 3b ed e1 ad bc
       -0.0492107 -0.012502726 0.0043624304 -0.021225894
0003a0 66 b5 ad bc 3d 09 57 bb 0b b1 bb 3c c5 c4 f0 3c
       -0.021204662 -0.0032811903 0.02291157 0.029390702
0003b0 4e 02 61 bd 13 06 9e ba 58 a5 8c 3c d9 47 4d 3d
       -0.05493384 -0.0012056254 0.017168686 0.050117347
0003c0 6a e4 03 3d b9 37 2f 3d 76 d7 a4 3c 45 43 52 bb
       0.032200254 0.04277775 0.020122271 -0.0032083553
0003d0 ef b5 f5 bc 71 68 b3 bc 74 63 b2 3c d0 43 1e bc
       -0.02999398 -0.021900387 0.021775939 -0.009659722
0003e0 d3 16 69 3d 58 e2 0b bd f9 55 2f 3d 8a d7 25 3d
       0.056906532 -0.034151405 0.0428066 0.040488757
0003f0 28 c7 2a 3d 2b cf 48 3d 85 d9 ff bc b9 44 16 3d
       0.041693836 0.049025696 -0.031231651 0.036686633

convs.5.bias f4 [64]
000000 45 a5 45 bd 3d 67 5f bd d3 b0 60 bd 86 0f b7 3c
       -0.048253316 -0.054541815 -0.054856133 0.02234627
000010 44 be c7 3c 99 1a 4e bd 8a ba 14 bd 24 9d 53 bd
       0.024382718 -0.050318334 -0.03631071 -0.051663533
000020 86 91 1d bd 7f 76 22 3c f4 53 36 3d 9d 24 d3 3c
       -0.03846886 0.009915947 0.044513658 0.025774295
000030 ba eb a9 bb 32 34 29 3c e6 3e ed 3c 2a f0 6a 3d
       -0.0051855715 0.010327386 0.028960656 0.057357945
000040 b0 c3 73 3d e2 ac 85 ba af 25 a6 bb ba 67 06 3c
       0.059512794 -0.0010198618 -0.00507041 0.008203441
000050 73 ed 4b bd d6 99 e1 bb 20 d3 88 3b 48 7c 5b 3d
       -0.049786996 -0.0068847938 0.0041755587 0.05358532
000060 da 52 6e 3d 56 94 f5 3c 31 e9 08 bd de f8 5e bd
       0.058184482 0.029977959 -0.033425514 -0.054436557
000070 49 78 e2 3a 27 08 c6 3c 77 80 1a 3d fe c2 e2 bc
       0.0017278279 0.02417381 0.03772017 -0.02768087
000080 40 b8 8f bc 68 67 8b 3b 91 9b 2b 3c 30 40 46 3a
       -0.017543912 0.0042542703 0.010474102 0.0007562665
000090 15 80 0a 3d eb dd 6a bc 88 69 92 3b 6f 49 3b bd
       0.033813555 -0.014335136 0.0044681467 -0.04572433
0000a0 76 c8 dd bc 27 72 00 bc 3f b4 3d 3d 6b 2c 3b 3d
       -0.027073126 -0.007839716 0.046314474 0.045696657
0000b0 fd 8e 1c 3d df 95 fe 3c bc 4d 0a bd 68 bb b2 bc
       0.0382223 0.031077323 -0.03376554 -0.021817878
0000c0 13 4d cc bc 95 a0 6e bb 96 82 35 3c e3 9b 1c 3d
       -0.024939096 -0.0036411632 0.011078497 0.038234603
0000d0 75 98 5c 3c de fb af bc 97 1c 3a bd 0c 00 36 bd
       0.013464083 -0.021482404 -0.04543742 -0.04443364
0000e0 fe 17 d7 3c 8c b6 08 bc 38 87 5d bd 10 d2 99 3c
       0.026256558 -0.008344304 -0.054084033 0.018776923
0000f0 f6 cb 40 3d 74 54 30 bd 42 e1 fb ba 32 bf 54 bb
       0.047069512 -0.04304929 -0.0019216912 -0.0032462594

convs.7.weight f4 [64, 64, 3, 3]
000000 f3 9c 81 3c 5f e8 d4 3c 64 d4 aa bb 0e 71 03 3b
       0.01582191 0.02598971 -0.005213307 0.00200564
000010 b5 50 64 bc e2 0c 55 bc cf 4c ae bc ff 09 81 3b
       -0.013935258 -0.01300356 -0.02127686 0.003937959
000020 86 56 67 3c 34 4a da bc e9 ce 2b bd 65 81 d9 bc
       0.01411975 -0.026646711 -0.04194537 -0.026550958
000030 92 f2 6a 3c f7 e3 a6 3c 89 8b 28 bd b5 18 6b b9
       0.01434006 0.020372374 -0.041148696 -0.0002242055
000040 41 4d 05 bd 7f 9d e4 bc 82 cf 97 bc 93 37 f7 bb
       -0.03254438 -0.027907131 -0.018531565 -0.0075444668
000050 b2 64 d9 3c b7 2e b9 bb 53 35 02 bd 8c 07 0a 3d
       0.026537273 -0.005651321 -0.031789135 0.033698604
000060 06 f8 8f 3c 25 3c 04 bd 87 4f 8b bc 72 d4 1c 3d
       0.017574321 -0.03228392 -0.017005695 0.03828854
000070 37 05 86 3c 6f 77 cc 3c c5 b0 f4 3b 59 47 18 3c
       0.016359909 0.024959294 0.0074673616 0.009294354
000080 50 82 c9 3c d9 d8 c1 bc 1d 33 11 3d ca 75 4b bc
       0.02459827 -0.023662971 0.035449136 -0.01241822
000090 20 de 26 bd 4e 34 28 bb 14 21 1b 3d 56 96 e7 3c
       -0.04073918 -0.0025665942 0.037873343 0.028269928
0000a0 01 8b d9 bc 8b ad b7 bc 07 9a 99 3b e5 76 00 bd
       -0.02655554 -0.022421619 0.004687551 -0.031363387
0000b0 e7 35 51 3c ed 09 e3 bb 91 ba e1 3c 5a 2f 9d 3c
       0.012769199 -0.0069286735 0.027554782 0.019187618
0000c0 e4 1f 0c bb 13 77 ed 3c 73 a6 aa bc a6 1e ae bc
       -0.0021381313 0.028987443 -0.020831322 -0.021254849
0000d0 75 2b 6c bc ba 1b 3d 3a d3 c2 82 b8 cb af 7a bc
       -0.014414658 0.00072139094 -6.235172e-05 -0.015300701
0000e0 ee db 0f bd c5 01 e5 bb 13 fe 0c bd cc 8c db bc
       -0.03512185 -0.0069887363 -0.03442199 -0.026800536
0000f0 02 87 be 3b 23 8c 9d bc 41 01 41 3b 45 bc 84 3b
       0.005814434 -0.019231861 0.002945021 0.004050764
000100 cb 06 67 bc aa 53 c3 3c e5 37 a4 3c 53 05 c9 bc
       -0.014100741 0.023843605 0.020046184 -0.024538672
000110 be 26 35 bd 11 e2 34 bd 87 81 0e bc 07 4f 09 bc
       -0.0442264 -0.044160906 -0.008697874 -0.008380658
000120 a7 18 7f 3c 37 e3 39 3c be 9c 76 3c 91 79 95 ba
       0.015569842 0.011345676 0.015052019 -0.0011404027
000130 12 cb 15 3c 1e ac 82 bc c9 0f 0d 3d 56 2d 06 3d
       0.009142654 -0.015951212 0.034438882 0.03275808
000140 d8 2d cd 39 0a 44 2c bd 6e d7 80 3b 72 f5 ed bb
       0.00039134803 -0.042057075 0.003931931 -0.0072619254
000150 d1 11 56 3c 6e 1c dd bc 24 2d c7 3c 2b ab c3 3c
       0.013065771 -0.026991095 0.024313517 0.02388533
000160 9f ab 16 bd dc d0 de bc b5 20 e5 bc 02 1d 1e bc
       -0.036784764 -0.027199201 -0.027969697 -0.009650471
000170 a3 62 4c bb 42 a4 97 b9 c5 0c 9d 3b 77 54 2c bd
       -0.0031186722 -0.00028923346 0.004792782 -0.04207274
000180 cc 5b e5 bb 6a fa 8c 3b 83 04 71 bc 7b 64 9c 3c
       -0.0069994684 0.0043023126 -0.014710548 0.019090882
000190 f9 d4 b0 bc a4 22 04 bc 12 46 8c 3c a5 1b ef 3c
       -0.021585928 -0.0080649 0.017123256 0.029187987
0001a0 43 be 59 bc 5a 62 a6 3b af 67 89 3c 06 14 d6 3c
       -0.013289991 0.0050776424 0.016773073 0.026132595
0001b0 5a 58 cf bc 81 8a ff 3b 88 f1 9d 3c b7 4b 05 3d
       -0.025310684 0.0077984934 0.01928021 0.03254291
0001c0 66 b1 7a 3c 1a 9e 11 bd 38 ef 0f 3d 65 f1 cc 3c
       0.015301084 -0.035551168 0.035140246 0.02501745
0001d0 cb de b5 bb 8e 62 d0 3c eb 17 ec 3b 7e 2e bd 3a
       -0.0055502406 0.02543762 0.0072049997 0.0014433411
0001e0 a5 13 1b 3d 2f 8f de bc 01 2d 06 bd 15 73 fa 3b
       0.03786053 -0.027167885 -0.032757763 0.0076431134
0001f0 7b b0 c4 3c e3 87 c1 3c 76 9c 86 3c 42 47 87 bb
       0.024009934 0.023624366 0.016432028 -0.0041283676
000200 a2 aa 24 bd 33 93 ab bc 89 8c 97 bc 51 c0 2d bd
       -0.04020179 -0.020944213 -0.01849963 -0.042419735
000210 7a bb 07 bd 63 e7 dc 3b 38 75 4a 3c 9f b8 e0 3c
       -0.033137776 0.0067414506 0.012357049 0.027431784
000220 78 dd 24 bc fb 62 b8 bc 81 02 22 bd 71 b9 3b bc
       -0.010062568 -0.022508135 -0.03955317 -0.011457787
000230 c5 fe 9f bc 79 f4 4e bc 22 98 f9 bc 83 72 3d bc
       -0.019530663 -0.012631529 -0.03046805 -0.011562946
000240 0a 67 f3 3c 06 40 80 3a 56 52 f7 bc fa df 3d 3b
       0.029712219 0.0009784705 -0.030190628 0.0028972612
000250 9c 86 ba 3c 26 5d 8b 3b 2b e4 1a bb 04 70 de bc
       0.022769265 0.0042530475 -0.0023634534 -0.027153023
000260 61 8d 4f 3c 04 a5 06 bd b9 bf 06 bd 65 10 f9 bb
       0.012667985 -0.032872215 -0.032897685 -0.0076008313
000270 8c 81 2a 39 b4 9d 01 bd 8f 02 e9 3c cf 79 a1 bc
       0.00016260723 -0.031644538 0.028443603 -0.019711403
000280 8c fe 3d bc 31 9c 5e bc a6 ee fe 39 51 9b f3 3c
       -0.011596333 -0.013587044 0.00048624462 0.029737147
000290 19 3d a1 bc 75 38 51 bb 1d 15 d1 bb b4 1c 84 bb
       -0.019682454 -0.003192452 -0.0063806907 -0.004031742
0002a0 47 32 12 3d 43 c4 8e 3c bc bf 6b 3b 0e 1e 01 3c
       0.03569248 0.01742757 0.0035972437 0.007880701
0002b0 9b 0c 17 3d f3 47 31 bd ff 9b 0f 3d 85 91 10 bd
       0.036877256 -0.043281507 0.03506088 -0.03529503
0002c0 8a 1d 4f 3b aa 6a ab bc ad 8d f8 3c b0 6c 01 bd
       0.00316033 -0.020924885 0.030340994 -0.031597793
0002d0 cc b0 8f 3c 53 69 04 bd b8 12 6a bc 08 51 d1 ba
       0.017540358 -0.032327008 -0.014286689 -0.0015969584
0002e0 fa b5 e7 bc 37 46 5e bc 21 94 5d 3c f2 57 db bc
       -0.028285015 -0.013566545 0.013524086 -0.026775334
0002f0 1a df dd bc 44 77 57 3c 1b f4 02 3d e5 7b 2f bc
       -0.027083922 0.013150994 0.03197108 -0.010710691
000300 20 8a 13 bd c0 e4 2a bd e2 25 17 bc f7 51 5b bc
       -0.0360204 -0.04172206 -0.009225341 -0.013386241
000310 ca 70 36 bd b4 00 9a 3b 45 da 07 3d cd 19 aa 3c
       -0.044541158 0.004699791 0.033167142 0.020764256
000320 71 60 ee 3c da 20 ac bc 89 a3 13 bd 67 92 02 bd
       0.029098721 -0.021011759 -0.03604463 -0.0318779
000330 54 d6 96 bb 93 f5 23 3a 38 10 82 3c c7 28 83 3a
       -0.0046031866 0.000625455 0.015876874 0.001000666
000340 36 a1 85 bc 16 40 56 bc b0 82 29 3c 40 74 a9 bc
       -0.016312223 -0.013076803 0.0103461 -0.020685315
000350 69 18 82 bc 78 7c d2 3c e4 42 00 3d 93 b8 b2 3b
       -0.01588078 0.025694117 0.031313792 0.005454132
000360 06 e9 17 3d 68 54 12 3b 95 2b ca 3c 90 e2 50 3b
       0.037087463 0.0022328142 0.024678985 0.0031873323
000370 1f 7e 72 3c c1 06 5b 3c 1a 48 8c bc ab 03 c0 3c
       0.014800577 0.0133683095 -0.017124224 0.023439249
000380 05 ed 1c bd df ee 64 b8 eb 85 bd ba c6 00 b9 bb
       -0.038311977 -5.4581902e-05 -0.0014459466 -0.005645844
000390 ec 46 61 bc b6 9e fe bc bf fe b7 3c 75 59 21 bd
       -0.013749819 -0.031081539 0.02246034 -0.039391953
0003a0 f7 46 26 bd ab 74 1e bd f6 98 3f 3c 3d eb a2 bb
       -0.04059502 -0.038685482 0.011694184 -0.0049718902
0003b0 cd c5 a3 bc 4d b5 07 3d 51 3b 31 bd bd a5 db bb
       -0.01999178 0.033131886 -0.04326946 -0.006703107
0003c0 8e 72 ca 3c 69 d4 aa 3c 6a 7f 0f bd 88 cb 8a bc
       0.024712827 0.020853238 -0.03503362 -0.016942754
0003d0 ce e8 1a 3d 70 1d a6 bc 07 e8 fa bc d2 d4 f0 3c
       0.037819676 -0.020277709 -0.030628217 0.029398356
0003e0 a0 50 f6 3c 62 f1 16 3c e5 db b5 bc df df 95 3c
       0.030067742 0.009212824 -0.02219958 0.018295227
0003f0 38 2e 01 bd ef f3 0a bd 66 8b 85 bc 26 9d 1c bd
       -0.03153822 -0.03392404 -0.016301822 -0.038235806

convs.7.bias f4 [64]
000000 0d b2 a6 bc 4e b5 19 bd 22 87 43 3c a0 90 8e bc
       -0.020348573 -0.03752642 0.011934074 -0.017402947
000010 8a d0 f3 bc d4 46 d7 3c 98 2d 5a 3c 20 52 06 bd
       -0.029762525 0.02627889 0.013316534 -0.032793164
000020 79 1f 8c 3c 41 90 24 bd b2 2e 14 bc cd ab 09 bd
       0.017104851 -0.040176634 -0.009044336 -0.033611108
000030 34 fd 9f 3c 5d 22 96 bc e5 d8 08 bd af ad 28 bd
       0.019529916 -0.018326933 -0.03340997 -0.041181263
000040 47 0e 03 3c 58 00 43 3c 12 e1 ab bc 72 e1 9b bc
       0.007999009 0.011901937 -0.020981345 -0.0190284
000050 a4 98 68 3b cb 44 de bb 91 e0 c7 bc 01 d3 44 3c
       0.0035491372 -0.006783103 -0.024399074 0.012013198
000060 7c 21 01 3c f9 20 1e 3d 14 11 a1 3c eb 92 85 bc
       0.007881518 0.038605664 0.019661464 -0.016305408
000070 10 da 0a bd 55 e6 2e bd 85 00 05 bc b8 82 84 3c
       -0.033899367 -0.04270013 -0.0081178 0.016175613
000080 94 71 34 bd 10 cb 10 bd 77 62 da bc e1 3f 07 bd
       -0.04405363 -0.035349905 -0.02665828 -0.033019904
000090 68 cf 23 3c c7 7b b0 bc 89 d3 b2 bc 3c f6 b3 3c
       0.00999818 -0.021543397 -0.021829383 0.021968
0000a0 f4 ae cf bc af 92 0f bd f9 aa df bc df e2 0b bd
       -0.025351979 -0.035051998 -0.027303206 -0.034151908
0000b0 95 df eb 3c af 77 08 3d c2 b8 20 bd e7 10 b5 bb
       0.028793136 0.033317264 -0.0392387 -0.0055256966
0000c0 29 2f 4a bb d9 f4 65 bc 1f 17 81 bc 03 a9 81 3c
       -0.0030850864 -0.014035427 -0.015758095 0.015827661
0000d0 21 96 c0 bc 21 d4 ff 3b a0 aa 92 3b 94 23 02 3d
       -0.023509087 0.00780727 0.0044759065 0.03177221
0000e0 16 c2 d0 3c 6f fa 0d 3d b1 21 3b bb 93 1b f9 3c
       0.025483172 0.03466266 -0.0028554017 0.030408656
0000f0 e1 d4 fd 3c 7e 7e 04 3d 2f c5 cc 3c da 38 df bc
       0.030985298 0.032347195 0.024996368 -0.027248789

convs.10.weight f4 [128, 64, 1, 1]
000000 b2 26 6f bd a6 45 e4 bc 85 36 8c 3d 4f 5b 80 3d
       -0.058386512 -0.027865242 0.06846336 0.06267416
000010 04 ac ce 3d 06 b6 6c 3c 2a c9 f0 bc a7 c7 c4 3d
       0.10091403 0.014447695 -0.029392797 0.09608393
000020 54 bd e4 3d 7d 97 4d bd 70 d2 39 bd dd 77 2c bd
       0.11168924 -0.0501933 -0.045366704 -0.042106498
000030 66 e5 6a bd d5 db 8a 3d 13 80 03 bd 91 9e 97 3d
       -0.057347678 0.06780211 -0.032104563 0.07403291
000040 53 54 f1 3b 84 15 88 3d cc 3b be bd f0 a8 5e bd
       0.0073647886 0.06644729 -0.09288749 -0.05436033
000050 e9 32 d5 bc 24 08 af 3d f0 04 33 bd 2f 2a a2 3d
       -0.026025252 0.085464746 -0.04370588 0.07918202
000060 cc 1c 7f bd 7d aa c3 3c 46 aa bd bd ef ec b2 bd
       -0.062283322 0.023885006 -0.09260993 -0.08736598
000070 3f b0 ee 3c d4 72 cb 3d dd ef 75 3d 97 2c 05 bd
       0.029136775 0.09934011 0.060043205 -0.032513227
000080 85 32 c7 3c a4 a3 d8 bd d9 a0 da bd bf 0a 87 bc
       0.024316082 -0.10578087 -0.106752105 -0.016484616
000090 d0 d2 2f 3d 38 8d 41 bd a0 90 93 bd 19 57 e9 bd
       0.042925656 -0.047253817 -0.072053194 -0.11393566
0000a0 f6 20 77 bc ae 9e cf bd 5c 00 8d 3d da bb b9 3c
       -0.015083542 -0.101376876 0.06884834 0.022672582
0000b0 82 d2 4a 3d 69 74 7d 3d d2 8f 19 3d 2d 21 49 3d
       0.049517162 0.061878596 0.037490673 0.049103905
0000c0 4a 8b f1 3d cf ea a1 3b 5a 74 26 bd 89 ad 67 3d
       0.117941454 0.0049413214 -0.040638305 0.05656198
0000d0 3f 4e f3 3c 9c 1e 1d 3d 02 bb 37 3c ae 5b 77 3d
       0.029700397 0.03835927 0.01121402 0.060390167
0000e0 e1 57 cf 3d aa 74 64 3c b3 68 c2 bd eb f5 4a 3d
       0.101241834 0.0139438305 -0.09492626 0.049550932
0000f0 e1 d9 fa bd 50 ef 21 3d 54 e3 74 3d 2c 79 47 3d
       -0.12248588 0.039534867 0.05978711 0.048699543
000100 57 dd e5 3c 14 58 6a bd 45 ab a5 bd ab 02 4c 3d
       0.028059645 -0.057212904 -0.08089308 0.049807232
000110 a4 d5 d6 bd 73 f0 f1 bc fb 7b de bd 53 0a 9f 3c
       -0.104899675 -0.0295336 -0.10863491 0.019414103
000120 5e 22 c6 3d 67 64 a3 bd 0d 33 d7 3d 9f 00 25 3d
       0.09674524 -0.079781346 0.10507784 0.040283795
000130 f8 37 f7 3c dd 87 a2 3d 24 1c e9 3d d0 50 5d 3d
       0.030178055 0.0793607 0.113823205 0.054032147
000140 b9 38 de 3d d5 3c ca bc ab 42 57 3c 9f 00 cb bd
       0.10850663 -0.02468721 0.0131384535 -0.09912228
000150 c5 1d 27 bd e4 2e dd bb 9f 76 cb 3d c2 40 38 bd
       -0.040799875 -0.0067499746 0.099347346 -0.044983633
000160 ab c8 9b bd 0b 95 02 3e 7f 9b b1 3c f3 98 ca bd
       -0.07606634 0.12752168 0.021680592 -0.09892454
000170 94 6d 9b 3d 33 fd dd 3c 25 96 f5 3c b2 dc 53 bd
       0.0758926 0.027098274 0.029978821 -0.051724143
000180 f1 4e e8 bc b5 f2 e6 bd f6 10 70 bb d6 8f e1 bc
       -0.028357955 -0.112767614 -0.0036631203 -0.027534407
000190 88 c2 b5 bd 03 fb 3a bd c0 e5 8b 3d c9 2e 4c 3d
       -0.088749945 -0.04564954 0.06830931 0.049849305
0001a0 e7 64 8d 3d 90 53 df bd cd e7 03 bd 0c ac 15 bd
       0.06904011 -0.1090461 -0.032203484 -0.03654103
0001b0 1e a8 e0 bc 71 16 15 bc 9a 93 97 3d 1f 33 de bb
       -0.027423915 -0.009099589 0.074012 -0.0067809965
0001c0 8f 7a b2 3c 8a 4b f0 3c ef a0 86 bc b2 1e 70 bd
       0.021786956 0.029332895 -0.016434161 -0.058623023
0001d0 c4 4f b9 bd 1d 72 b5 3d 42 76 92 3d f4 dd d4 3d
       -0.09048417 0.08859656 0.07151462 0.10393897
0001e0 61 a7 12 bd e8 dc 99 3d 90 39 e8 bd e1 ed 8b bd
       -0.035804156 0.07512838 -0.11339104 -0.06832481
0001f0 4c 5f 99 bd 9d 6b cf bd 04 0a d8 bb 13 ae 9d bd
       -0.074888796 -0.101279475 -0.006592991 -0.07699218
000200 e8 2a f6 3d 15 0e 21 bd 71 6c 0d 3d f0 19 ff 3d
       0.120199025 -0.03932007 0.034527246 0.12456119
000210 8b 8c d2 3d 5f 88 a4 3d 7c c6 1c 3d da b1 a1 bd
       0.10280713 0.08033823 0.038275227 -0.078952506
000220 a1 b1 9f bd db 31 f6 3d d6 ea 23 bc c6 18 b2 bd
       -0.07797552 0.12021228 -0.01000472 -0.086961314
000230 c6 df 02 bd b9 e1 62 3d 97 35 3f bd e5 76 4d bd
       -0.03195169 0.055391047 -0.046681967 -0.050162215
000240 14 51 47 3c 76 ad 41 bd bb 77 25 3d 18 09 6b 3c
       0.012165327 -0.047284566 0.040397387 0.01434543
000250 2a d8 56 3d f1 b1 f9 bd db 22 b0 3d ab d3 8e bd
       0.052452244 -0.12192143 0.08600398 -0.06973966
000260 3d a7 71 3d ab fb b6 bd 31 f6 99 bd 10 5f ef bd
       0.05899738 -0.089347206 -0.075176604 -0.116880536
000270 3c 81 d3 3b 31 05 c4 3c 26 b4 98 bd 78 ba 37 bd
       0.006454615 0.023928257 -0.074562356 -0.044855565
000280 b2 b4 0d bc 7f 1b 81 3b d4 e3 67 3d f6 9a a8 bd
       -0.008649038 0.0039400454 0.05661376 -0.082326815
000290 19 c8 9c bd d6 d8 e6 3d de 0d 3e bc 0c 9e db bd
       -0.07655353 0.11271827 -0.011599986 -0.107235044
0002a0 9e 6a db bd c1 83 ba bd a7 57 2f 3a af 2c 2d bd
       -0.10713695 -0.09107161 0.00066887814 -0.04227894
0002b0 86 ae e1 bd 6a d9 c9 3c 96 78 02 3e 37 e3 ea 3d
       -0.11019616 0.024639804 0.12741312 0.11469119
0002c0 a6 a1 94 bd 68 79 63 3d 01 9c 20 bc 39 5f e1 3d
       -0.072573945 0.055535704 -0.009802819 0.110044904
0002d0 2b 4a 94 bb f2 6c 9d 3d 03 d6 7f 3d 91 4c 62 3d
       -0.004525443 0.07686795 0.062459957 0.0552488
0002e0 3c 40 d8 3c 0f 6d 70 bd 69 11 84 bd 9f e8 3d bd
       0.026397817 -0.058697756 -0.06448633 -0.046364423
0002f0 f3 a6 73 b9 61 08 06 bd 60 a7 b2 3d 7e 81 bb 3d
       -0.0002323648 -0.032722834 0.087233305 0.09155558
000300 82 dc d7 3c f7 0f 80 3c fb 9f 28 3d ae 92 cf bd
       0.026350264 0.015632613 0.041168194 -0.10135399
000310 8d d4 8a bd 1f 0d 34 3d c7 e4 f2 bd 80 c5 1e 3d
       -0.06778822 0.043957826 -0.11860042 0.03876257
000320 f1 4f 34 3c b1 fc 69 bb 3a 3a f3 3d ee 7b 02 3d
       0.011005388 -0.0035703594 0.1187634 0.03185647
000330 c3 5f 03 3c 03 4a 85 bc c3 6b e6 bc c6 aa c2 3d
       0.008018437 -0.016270643 -0.028127557 0.09505229
000340 20 4b d4 3c ba 66 a7 bd 5a 33 b4 bc e1 0d d3 bc
       0.025914729 -0.081738904 -0.021997143 -0.025763454
000350 fe 02 dd 3d 9b 16 df bd 27 2a 6a bd 60 a6 08 bb
       0.10791586 -0.108929835 -0.057169106 -0.002085112
000360 6c 34 61 bd 3a 32 b5 3d 51 01 c0 bd f5 84 13 3d
       -0.054981634 0.088474706 -0.09375251 0.03601547
000370 1e 9b d8 bd 56 26 e8 3d 16 4b d9 bc bb 56 dc 3d
       -0.10576461 0.11335437 -0.026525062 0.1075873
000380 55 a9 52 bd 4a 7f a5 bd a7 6e 1e 3d c1 4e cf 3d
       -0.05143102 -0.08080919 0.038679745 0.10122443
000390 99 4e f8 3d de c4 68 3d 5a 5e c5 bc 65 52 5f 3c
       0.12124366 0.056828372 -0.024092842 0.013630484
0003a0 58 42 1e bd 99 0a d3 bd 83 53 30 3c 7c b1 86 3d
       -0.03863749 -0.10304756 0.010762098 0.06576821
0003b0 7f 22 90 bd 99 ae 84 bd fc 5f d7 bd c0 2b f7 bd
       -0.070378296 -0.06478614 -0.105163544 -0.120688915
0003c0 82 6e 57 bd 4b bb 3d bd 24 42 ca bd bf 4d ba 3d
       -0.052595623 -0.046321195 -0.098758966 0.0909686
0003d0 82 0c bd bd da 7d 1e 3d 71 f0 f5 3d 60 da bb 3c
       -0.09230901 0.03869424 0.12008751 0.022931278
0003e0 f3 99 9c 3d b8 c6 23 3d f1 d5 5d 3c 87 2e c0 bd
       0.07646551 0.039984435 0.013539777 -0.093838744
0003f0 89 38 a0 3d 7d e9 ae 3c 53 fc ad bc 0a bd cb 3c
       0.07823283 0.02135157 -0.021238482 0.024870414

convs.10.bias f4 [128]
000000 cd 5c 25 bd c9 90 a5 bc 76 e9 7e bd 75 8a 87 3d
       -0.040371705 -0.02021064 -0.062234364 0.066182055
000010 bc 35 d9 3d 58 c8 d7 3d c9 da 6d bd 8e d6 87 ba
       0.10605952 0.105362594 -0.058069978 -0.0010363625
000020 cb 66 a9 3b 0e 25 d2 3b 73 a5 92 bd 39 24 bf bc
       0.0051697246 0.0064131087 -0.07160463 -0.023332702
000030 d9 86 4c 3c 0a 10 1a bd da 57 b4 bd 4a b5 f5 bd
       0.012483322 -0.037612952 -0.08805819 -0.11997469
000040 19 7a d5 bd 77 73 12 3d 47 89 62 bd f0 c2 99 3d
       -0.10423679 0.035754647 -0.0553067 0.075078845
000050 d3 ed 04 3d 4b 6c 86 bd 3a 11 69 bd 3f 00 a7 3d
       0.03245337 -0.06563624 -0.056901194 0.08154344
000060 21 28 84 3d a6 1e c0 3c af 50 c2 3d c7 70 83 bd
       0.064529665 0.023452114 0.094880454 -0.06417995
000070 6e aa 96 3d d8 17 a8 3d f9 b9 ad bd 5a a4 9a bd
       0.07356726 0.08207673 -0.08482737 -0.07550879
000080 e2 e5 3c bd 9a a9 b8 3b 58 38 50 bd 96 f2 83 3d
       -0.04611767 0.0056354525 -0.050834984 0.06442754
000090 0c 26 f6 bd 89 5e a7 bd 3c 5b e5 bd 6a e2 d7 bd
       -0.120189756 -0.08172328 -0.11199042 -0.10541232
0000a0 ea 87 9b 3d 28 b6 9f 3d 11 71 c8 3d f9 0f e1 bd
       0.07594283 0.077984154 0.09787191 -0.10989375
0000b0 dc 7f f9 3d 45 58 79 3d 88 90 89 bd ca 34 f1 3c
       0.1218259 0.060875196 -0.0671702 0.029444117
0000c0 a5 4d fe bd 96 54 de 3d 67 a0 dc 3d 25 17 5a bd
       -0.12417153 0.10855977 0.10772782 -0.05324473
0000d0 2e 96 47 bc 7e 22 4c 3d 85 0b 91 3d 11 84 97 bb
       -0.012181802 0.04983758 0.07082275 -0.004623898
0000e0 2a 4c a6 3b 27 12 a7 3d 4f 47 4e 3d f3 fc 16 3d
       0.0050749974 0.08157759 0.050360974 0.036862325
0000f0 19 e3 0c bd 54 cf 68 3d 3b 92 80 bd 8b ed 44 bd
       -0.034396265 0.05683835 -0.06277891 -0.0480781
000100 e3 ff e0 bd fb a3 7c bd dc 50 a3 3d 2f 9d 86 3d
       -0.109863065 -0.06167982 0.07974407 0.06572949
000110 27 e6 99 bd 1f 02 23 bd 3a f6 dc 3b 64 7b 58 3d
       -0.07514601 -0.039796945 0.0067432197 0.05285205
000120 ae 92 ba 3d 96 c7 be bd 15 0c cb 3d 66 c6 be 3d
       0.09110008 -0.09315412 0.09914414 0.09315185
000130 d3 cf 56 bd ff 95 b2 bd de d5 f6 bd 59 8f 3e bc
       -0.05244429 -0.08720016 -0.12052511 -0.011630856
000140 ed 94 bb 3d 52 85 d6 bd 7c 27 22 3d 50 b5 c3 bd
       0.09159265 -0.104746476 0.039588436 -0.09556067
000150 73 06 0f bd 2a 4f a1 bd e9 7a 36 3d d7 ff 67 3d
       -0.03491826 -0.078764275 0.04455081 0.056640472
000160 ed 8f ea 3d 90 c3 92 bd 01 bf a6 bc c2 43 17 3d
       0.11453233 -0.07166207 -0.02035475 0.036929853
000170 23 6f ed 3d f4 d0 c1 3d 79 41 e7 3c be 7f be 3d
       0.11593463 0.09463683 0.028229462 0.09301709
000180 d4 5c d8 bb 82 40 8b 3d 25 8c 37 bd d8 45 35 3d
       -0.006602863 0.06799413 -0.044811387 0.04425606
000190 8a 1d 49 3d 99 13 2d 3d b8 a6 d7 3d c6 57 9f 3d
       0.049100436 0.042255018 0.10529846 0.07780413
0001a0 52 b4 de bd f6 d5 50 bd f6 ae b3 3b dc 90 de 3d
       -0.10874237 -0.0509853 0.0054835035 0.108674735
0001b0 58 87 ae 3d f3 bd e8 3d 79 fd 27 bd 32 ae a3 bd
       0.085219085 0.11364355 -0.041013215 -0.079922095
0001c0 df c0 e9 bd 02 b0 a3 3d c9 16 a9 3c 15 ba 50 bc
       -0.1141374 0.07992555 0.020640748 -0.012739678
0001d0 7f 24 6b 3b dd e2 4a 3d 5e 54 f9 3d 0d c6 9b bd
       0.0035879908 0.04953276 0.12174295 -0.076061346
0001e0 aa c0 e1 3d 2f e2 32 bd 37 c2 1e 3d ed 65 42 3d
       0.11023076 -0.043672737 0.038759436 0.047460485
0001f0 1b 83 1e bd 41 bb ad 3d df f8 d9 bd e7 df f4 3d
       -0.03869925 0.084829815 -0.106431715 0.119567685
